…
2024-04-15 00:35:52.278:INFO:main.config - CUDA enabled.
2024-04-15 00:35:52.305:INFO:main.config - Load checkpoint from results/slowfast_pt/model_best.ckpt
2024-04-15 00:36:02.351:INFO:main.config - Loaded model saved at epoch 3 from checkpoint: results/slowfast_pt/model_best.ckpt
2024-04-15 00:36:02.371:INFO:__main__ - Model Model(
  (transformer): Transformer(
    (encoder): TransformerEncoder(
      (layers): ModuleList(
        (0-3): 4 x TransformerEncoderLayer(
          (self_attn): MultiheadAttention(
            (out_proj): NonDynamicallyQuantizableLinear(in_features=1024, out_features=1024, bias=True)
          )
          (linear1): Linear(in_features=1024, out_features=1024, bias=True)
          (dropout): Dropout(p=0.0, inplace=False)
          (linear2): Linear(in_features=1024, out_features=1024, bias=True)
          (norm1): LayerNorm((1024,), eps=1e-05, elementwise_affine=True)
          (norm2): LayerNorm((1024,), eps=1e-05, elementwise_affine=True)
          (droppath1): DropPath()
          (droppath2): DropPath()
        )
      )
    )
  )
  (position_embed): PositionEmbeddingSine()
  (txt_position_embed): TrainablePositionalEncoding(
    (position_embeddings): Embedding(75, 1024)
    (LayerNorm): LayerNorm((1024,), eps=1e-05, elementwise_affine=True)
    (dropout): Dropout(p=0.5, inplace=False)
  )
  (token_type_embeddings): Embedding(2, 1024)
  (span_embed): Conv(
    (layers): ModuleList(
      (0-1): 2 x Conv1d(1024, 1024, kernel_size=(3,), stride=(1,), padding=(1,))
      (2): Conv1d(1024, 2, kernel_size=(3,), stride=(1,), padding=(1,))
    )
  )
  (class_embed): Conv(
    (layers): ModuleList(
      (0-1): 2 x Conv1d(1024, 1024, kernel_size=(3,), stride=(1,), padding=(1,))
      (2): Conv1d(1024, 1, kernel_size=(3,), stride=(1,), padding=(1,))
    )
  )
  (input_txt_proj): Sequential(
    (0): LinearLayer(
      (LayerNorm): LayerNorm((512,), eps=1e-05, elementwise_affine=True)
      (net): Sequential(
        (0): Dropout(p=0.5, inplace=False)
        (1): Linear(in_features=512, out_features=1024, bias=True)
      )
    )
    (1): LinearLayer(
      (LayerNorm): LayerNorm((1024,), eps=1e-05, elementwise_affine=True)
      (net): Sequential(
        (0): Dropout(p=0.5, inplace=False)
        (1): Linear(in_features=1024, out_features=1024, bias=True)
      )
    )
  )
  (input_vid_proj): Sequential(
    (0): LinearLayer(
      (LayerNorm): LayerNorm((2818,), eps=1e-05, elementwise_affine=True)
      (net): Sequential(
        (0): Dropout(p=0.5, inplace=False)
        (1): Linear(in_features=2818, out_features=1024, bias=True)
      )
    )
    (1): LinearLayer(
      (LayerNorm): LayerNorm((1024,), eps=1e-05, elementwise_affine=True)
      (net): Sequential(
        (0): Dropout(p=0.5, inplace=False)
        (1): Linear(in_features=1024, out_features=1024, bias=True)
      )
    )
  )
  (weightedpool): WeightedPool()
)
2024-04-15 00:36:02.372:INFO:__main__ - Start Training...
/vhome/shijiapeng/miniconda3/envs/vtg/lib/python3.10/site-packages/torch/utils/data/dataloader.py:560: UserWarning: This DataLoader will create 16 worker processes in total. Our suggested max number of worker in current system is 1, which is smaller than what this DataLoader is going to create. Please be aware that excessive worker creation might get DataLoader running slow or even freeze, lower the worker number to avoid potential slowness/freeze if necessary.
…
